app/src/main/assets/justine_hotword.lite (tflite, 9956 bytes, 6 tensors)

sequential/conv1d/BiasAdd/ReadVariableOp f4 [8]
00000000: 42ff 07bf 0287 e0be 94bf 93be a510 b5be
00000010: c7b9 aabe 1bab 29be 53ef b2be af45 1dbe
-0.5312387 -0.43853003 -0.288571 -0.3536426 -0.33344862 -0.16569178 -0.34948215 -0.15358613

sequential/conv1d_1/BiasAdd/ReadVariableOp f4 [16]
00000000: 5063 07bd 636e d9bd e0bc 38be ce3b 0fbe
00000010: dc40 71bd d4be 2f3d 2ccb 883d 7af3 c6bd
00000020: 426e e73d 8e5c d03d ef21 b43b 9637 f8bd
00000030: 3ea4 e3bd ae83 23bd adbd c6bd 31cf 4cbe
-0.033053696 -0.10616758 -0.180408 -0.13987657 -0.058899745 0.042906597 0.06679377 -0.09714408
0.11300327 0.101739034 0.0054972093 -0.12119977 -0.11115311 -0.0399205 -0.097041465 -0.20000912

sequential/conv1d/Conv1D f4 [8, 1, 3, 13]
00000000: d303 1b3e f8be 003e 0a30 133e 6fb0 43be
00000010: dd95 3dbe 52b3 353e d55a ccbd d005 eabe
00000020: b05a 633d c940 a03e 388c c33b 4d0d b1be
00000030: 20a6 613d d1eb b5be ccec c1be 289b 3d3e
00000040: 318e 3ebe b77e 2bbe 863d 373e 0694 5bbe
00000050: 89da 643d 4927 143e d94f a03e e22a 9f3e
00000060: f291 d83d b5a8 f2bd 9fda 6a3d b299 11bf
00000070: 2460 213e 6ddd 0fbd e92b 9abe bcf4 923e
00000080: d4dd 68bd 017c 11be 1628 463e 6a79 1a3d
00000090: 78ae 62be 0b4d 543d 63a5 88bd 79bf dcbe
000000a0: d927 24be 34b3 84be 4b42 d8bd c0bf 19be
000000b0: 04b3 ee3e efc5 7dbd c97f 4ebb 423f 963d
000000c0: bda1 f23d 2317 283e c999 10bb a545 3b3d
000000d0: de1e afbe e02c 023e 88c7 6dbd e7b7 a3be
000000e0: b25d 9a3d 9355 833e d4ea 943e e126 593d
000000f0: fd2d 1b3d f637 f33d a237 0d3e 6434 923e
00000100: e1a7 8cbe 0969 b8be 4c6e b2bd 6ade 76be
00000110: 875c 87be b0d7 3a3d bcb2 8e39 5d3b 8ebb
00000120: 2212 3c3e 5a60 33bd b212 673e 1f6f 88be
00000130: aba5 bf3c 1a4d c93d 85a0 6abd a787 a53d
00000140: 28d9 82be bf4c 053e 9116 f2bb 9bbd 93be
00000150: 97c2 603d a865 fa3d 2fa1 3abd df7f 853d
00000160: 99ff 4bbe cd07 d1bd 689c 683e 7018 14bf
00000170: 71a7 b9be e18e 3b3e 44c5 e23e 9572 a03e
00000180: c19c ebbd 6bcc 9c3e 7058 583e 33ce 00be
00000190: 8f37 b5bd b040 b13d 1c10 d93d 9cd3 153e
000001a0: a99f dbbe 06f5 0ebf 0e72 ffbc 9887 eebe
000001b0: 0195 83be 6aed 20bf 3f50 76be 8a56 39be
000001c0: a4ee 8abd 1216 83be 3f42 203d 8849 afbe
000001d0: c569 b6bd 0a12 67be 666b 94be 0cfb 80be
000001e0: 1683 9ebe bd04 f33d 64b9 ba3d 6dfa e33d
000001f0: ef4f cbbc 65f6 4f3e b0c1 9dbe d054 c53d
00000200: 9320 eabd f177 aebd ef43 ee3e dcb7 4c3e
00000210: 5099 b0be 2e88 113f d5ad 91bd fa16 d53e
00000220: dee1 9fbd 1004 923d e15c a23c 5ef5 7d3d
00000230: 1c48 853c d2d6 2abc be46 7ebc 4f14 3e3f
00000240: e85b 1dbe ea53 6e3e a39d 35be 770a 74bd
00000250: 535e ab3d 4e91 863e 5408 a2bd 5f7e bf3c
00000260: eca2 ac3e 1ffb 193e 67c0 103d 0b9e 84be
00000270: 0eae 023f 697a 3cbe b92b eabd 1d0b a13e
00000280: 4480 9ebd 9f75 3ebe a2ed 593e 6f41 4e3e
00000290: 9885 a3bd f148 a93e 5a1b 383d 4cd5 dd3e
000002a0: 2306 dc3d b39c cc3e bdfd 52bb 75f2 6e3d
000002b0: 2d36 1bbf 7548 91bd f21b b8be 0a9d 95bd
000002c0: a419 15be 8e46 73be cdb3 1e3d 6180 9e3e
000002d0: 128e 9cbd 4c8a 0dbd 6f39 c8bd 7d7e cf3e
000002e0: 5be0 debd 8959 e0be 6979 f83c aab6 06bd
000002f0: e048 1b3e e83f e93c 5a41 4e3e 3380 7fbe
00000300: 6e5b bcbd b610 6a3e b644 3c3e 08be d5bd
00000310: 3927 9e3d 2516 9bbe 2f60 003f 93da b23c
00000320: 831c 8c3e c6c0 d1be e7b9 093e 9468 c9bd
00000330: 2820 a7bb dfa6 603d 7208 343d a400 ce3d
00000340: 7730 8e3e 8ab5 81be a662 9fbe 02f0 f1be
00000350: 615a b2be c591 593e 5f3e 0bbe 35c4 8abd
00000360: 7c25 41be 1b54 f53d 5239 c1bc 1117 80bd
00000370: 6378 0dbf 0bd1 55bd 0b68 343f 4bda 15be
00000380: 36af cc3e 5287 e8bd af5b 143f c4ee edbc
00000390: e15c e43d fe36 aa3e a8e9 8cbb 71e0 d83b
000003a0: 7dc6 4a3d ca18 263e 18ae 1f3e ea67 393e
000003b0: e57d 2c3e 4bdb 223e ba3f 88bd 5b43 d3be
000003c0: 8546 a1be de00 dcbd dc39 a9bd 5ba9 f0bd
000003d0: 6012 1fbc 9848 663e c0cd 8d3d cf66 ccbd
000003e0: 0768 0c3e 7d91 f7be 0aec 1fbd c00c 5d3e
000003f0: a346 a6be bc1f 96bd d102 23be 62c0 563e
0.15138178 0.12572849 0.14373794 -0.19110273 -0.185142 0.17744187 -0.09978262 -0.4570756
0.05550641 0.31299427 0.005967643 -0.3458046 0.05509007 -0.35531476 -0.37875974 0.18516219
-0.18608929 -0.16747557 0.17894563 -0.21443185 0.055872474 0.14468111 0.3131092 0.31087404
0.10574712 -0.118485846 0.0573374 -0.56875145 0.15759331 -0.035123277 -0.30111626 0.28702343
-0.056852177 -0.1420746 0.19351229 0.037713446 -0.22136867 0.051831286 -0.0667217 -0.43114832
-0.16030826 -0.2591797 -0.105595194 -0.15014553 0.46620953 -0.061956342 -0.0031509271 0.07336284
0.118472554 0.16415076 -0.002206432 0.045720715 -0.34203237 0.12712431 -0.058051616 -0.31976244
0.07537402 0.25651225 0.2908541 0.053015593 0.037885655 0.11875908 0.13790753 0.28555596
-0.2747183 -0.36017635 -0.08712444 -0.24108282 -0.2643778 0.045615852 0.00027217518 -0.0043405727
0.18366292 -0.04379306 0.22565725 -0.2664728 0.023394426 0.09829159 -0.05728199 0.08082514
-0.25556302 0.13017558 -0.007387944 -0.28855595 0.054873075 0.12226421 -0.045563873 0.0651853
-0.19921722 -0.10206566 0.22715914 -0.5784979 -0.3626056 0.18316223 0.44291127 0.3133742
-0.11504508 0.3062471 0.21127486 -0.12578659 -0.088484876 0.08654916 0.10598776 0.14631504
-0.4289525 -0.55842626 -0.031182315 -0.46587825 -0.25699618 -0.62862265 -0.24054049 -0.18099418
-0.06783798 -0.25602776 0.039125677 -0.34235787 -0.08906893 -0.22565475 -0.28988189 -0.25191534
-0.30959386 0.11866138 0.09117392 0.11131749 -0.024818389 0.20308836 -0.30811834 0.09635317
-0.11431994 -0.08518971 0.46536204 0.19992012 -0.34491968 0.5684842 -0.07113234 0.41619092
-0.078067526 0.07129681 0.019819679 0.06200158 0.016269736 -0.010427194 -0.015519796 0.7424974
-0.1536709 0.23274198 -0.17735915 -0.059580293 0.083676 0.26282734 -0.07911745 0.023375688
0.3371805 0.15037201 0.03533974 -0.25901827 0.51046836 -0.18406071 -0.11434121 0.3145379
-0.077393085 -0.18599556 0.21282056 0.20142148 -0.07984465 0.33063462 0.04494796 0.43326795
0.10743358 0.39963302 -0.0032194697 0.058336694 -0.6062954 -0.07093898 -0.3595882 -0.073053434
-0.14560562 -0.23757383 0.03874569 0.3095732 -0.07644285 -0.03455572 -0.097765796 0.4052619
-0.10882636 -0.4381831 0.03033133 -0.032889046 0.15164518 0.028472856 0.20142117 -0.24951248
-0.09197126 0.22857937 0.18385586 -0.10436636 0.07722325 -0.30290332 0.50146765 0.02183274
0.27365503 -0.40967387 0.13449822 -0.098344 -0.005100269 0.05484664 0.043953367 0.10058716
0.2777135 -0.25333816 -0.3112995 -0.47253424 -0.3483458 0.21247013 -0.13598011 -0.06775705
-0.18861955 0.119789325 -0.023586903 -0.062543996 -0.5526182 -0.052201312 0.70471257 -0.14634053
0.39977425 -0.11353935 0.579524 -0.029044516 0.11150528 0.3324508 -0.004300315 0.0066185524
0.0495057 0.16220394 0.15593755 0.18106046 0.168449 0.15903966 -0.0665278 -0.41262326
-0.31499115 -0.10742353 -0.08262989 -0.11751052 -0.009708971 0.2248863 0.06924009 -0.09980547
0.13711558 -0.48353186 -0.039043464 0.21586895 -0.32475767 -0.073302716 -0.15919043 0.20971826

sequential/conv1d_1/Conv1D f4 [16, 1, 3, 8]
00000000: f9ac bfbd 33d8 5fbd 33fb 063e 9e3b 853e
00000010: bd08 d6bd 586d 89bd 7d07 77bd 02a5 323e
00000020: b0b0 13bd 5f77 a3bd e1c8 5fbe fb8e 063d
00000030: 414d b6be 34bf 053d 3eb4 7d3e fe8e 19be
00000040: 905c 453d 69c3 0cbd be6d 263e 9862 8f3e
00000050: 2a72 78be 3520 503c ab7d 1a3d 7f7d 8a3d
00000060: 47e3 003d d8f1 c8bc 7943 14be 92e1 34be
00000070: 2f84 093e eeed 26be 41e2 c9bd dbe9 113e
00000080: 3a46 33be bce5 5ebc fb84 d4be fc9d 38be
00000090: 2197 aa3e 52d6 183d d6b7 e03e ac5f a43e
000000a0: b4fb ea3e b1aa d7bb 16b7 9bbe 2b4f a6be
000000b0: ba9a fcbd 65a6 d1be d4ea e73d 4324 88bd
000000c0: 62c5 a5bd a51f b5bc 995b 33be 4104 08be
000000d0: 8bc7 9ebd 3c22 12be 0455 6dbd 5cf7 d63d
000000e0: b261 173f 9fa8 29bc 943a 4d3e 347a a43b
000000f0: 40f7 8bbd 5745 45be 6f7f 35be 089e 9a3e
00000100: c1f0 e4bd f1ec aebc 7dcc a5bd e8fe d6bd
00000110: c2c8 42be 9124 823d 177d 1d3e 9f66 c2bc
00000120: 1fd9 623e e83c b7be b758 9bbd 7369 64bd
00000130: 840c cbbb 774f aebe 56c0 82be 8540 3d3e
00000140: 8e56 313e b8ec 01bf 778a d1bd 35ee 243e
00000150: fa19 afbd f41a bfbe 985c a6be edd8 11bd
00000160: e38e cabe 6797 b1be eff4 71be 613e a43d
00000170: 440a aebd 88a4 e5be 28f7 bf3e f58b ca3c
00000180: 8124 1fbe 24a8 a43d 2169 933d 28a0 febe
00000190: 0b4c 92be 77d2 9ebe 96f9 53bb 0c3a dbbd
000001a0: 17bf b5bd fc35 2e3d 0091 3cbe 3bef 51be
000001b0: aad7 b6be 0ac0 d5bb 4b76 663d 8951 58be
000001c0: 0d80 413d e09d d33e 6875 13be 55b1 a1bb
000001d0: e2aa 4bbe 210b e93e 02f0 4dbe c6e9 06be
000001e0: 8c39 6cbe 3fe4 7e3c 739a 3e3e 3f70 b53d
000001f0: 7cec c9bd 2f1e c0be b178 a8bd 652c c73e
00000200: 304b c7be 84bf 8ebd b7f7 86bc ef00 58be
00000210: 1bb0 403e 2f2e 4c3e 72e6 60be f744 f2bb
00000220: 03e6 7abe fe9f 2b3d 3b87 253e f1cb e63c
00000230: 8442 0ebe eb97 05be e155 6dbe 86ff 8d3e
00000240: 42f3 8c3e 4af2 e2bd baed fc3d 3050 953e
00000250: a4aa 9bbe 62f3 41bd 5044 52bd 9e2e a73c
00000260: 44b6 b43d 44ae 13be 9fa1 263e cd9f a6bd
00000270: f2fb 42be 2918 163e d365 bd3c 086c 8b3d
00000280: 45d1 0dbd 88ad 38be ae3e 7bbe 2778 df3e
00000290: 4ade f4bd f7b4 b63d e9c0 af3b 2e12 87be
000002a0: 0f13 b0bd 0cd8 a2bc 1982 a3bc 343c c9be
000002b0: 81b7 f9bd 34f7 143e 20f6 833d 2ae9 f93b
000002c0: 8f2a 1dbd b083 7bbd 4c94 bbbd 743c ef3d
000002d0: 5844 d13e 79d0 8a3e 340a 263d 1117 073e
000002e0: 4f12 c7bd cb05 96bd f502 dfbe 15a3 b1bd
000002f0: 181f 183f ffac 9fbc fb44 4c3e c654 ee3c
00000300: 5ff3 12be 9d75 c6bd 4a4a 443e cb15 143e
00000310: f3dc 663e 265f 80bd 00a9 a83d 2aad 8d3e
00000320: e7c6 64be cf1c 23be 13c0 9cbe a71c 823e
00000330: 6a69 983e 2eb6 32be 6a54 5abe 99a2 df3e
00000340: 1f73 2cbe 040c 0bbe 9bbe 673e 5786 2d3e
00000350: bc39 2a3e ad18 213e 7451 06be 4e0d 2a3e
00000360: 34bc 6fbe ed6d 16be 9e6d 853e dc81 953e
00000370: e0b1 153d 0eac a53e d815 dbbc e299 1c3e
00000380: ea88 79be a990 2fbe 7c4a 103e 101b 85be
00000390: 8dba 883d 610d ad3e 0db5 58bd 4d51 ae3d
000003a0: 0eef 17be 903d f1bd 2ea8 9e3b 875a e53e
000003b0: 52f2 c938 6d56 6f3e 872d f6bd bd96 7d3e
000003c0: 472e 063e c8e0 c6be 7667 15bf 4be3 5fbd
000003d0: 6a04 063e 1acb 86be e41e 063f 4314 a2be
000003e0: 50de a4bc 0ca2 edbe 3998 abbe c069 57bb
000003f0: a0fa c9bd 50de 89be befb 17be f5c1 68bd
-0.09359164 -0.054649543 0.13181762 0.26022047 -0.104508854 -0.06710309 -0.060309876 0.17445758
-0.036057174 -0.079817526 -0.21853973 0.0328512 -0.35605815 0.03265305 0.24775788 -0.14995953
0.048183978 -0.034366045 0.16252801 0.2800491 -0.242623 0.012702991 0.037717503 0.06762218
0.03146675 -0.024529383 -0.14478864 -0.17664173 0.1342933 -0.163017 -0.09857608 0.14249365
-0.17507258 -0.013604578 -0.41507706 -0.18029016 0.33318427 0.037313767 0.43890256 0.32104242
0.4589516 -0.0065816273 -0.3041312 -0.32482275 -0.12334199 -0.4094726 0.11324087 -0.066475414
-0.080942884 -0.022109816 -0.1751541 -0.13282873 -0.077529036 -0.14270872 -0.057942405 0.10496399
0.59133446 -0.010355144 0.20041877 0.0050194506 -0.068342686 -0.19264732 -0.17724393 0.30198693
-0.11178733 -0.021353217 -0.08095644 -0.10497838 -0.19021896 0.06354631 0.15379749 -0.023730574
0.22153138 -0.35788655 -0.075852804 -0.055764627 -0.0061965603 -0.34045002 -0.25537366 0.18481643
0.17318174 -0.5075183 -0.10231488 0.16106494 -0.085498765 -0.3732525 -0.32492518 -0.035607267
-0.3956214 -0.34685823 -0.23628591 0.0801971 -0.08498052 -0.4485209 0.37493253 0.02472494
-0.15541269 0.08039883 0.07197786 -0.49731565 -0.2857364 -0.31019947 -0.003234481 -0.10704431
-0.08874338 0.042531952 -0.18414688 -0.20501415 -0.35711414 -0.006523137 0.056265157 -0.21124853
0.04724126 0.41331387 -0.14400256 -0.0049344697 -0.19889405 0.45516303 -0.20111087 -0.13175115
-0.23068827 0.015557348 0.18613605 0.088593 -0.09859559 -0.37523028 -0.08226145 0.38901058
-0.3892455 -0.069701225 -0.016475542 -0.21094106 0.18817179 0.19939493 -0.21962908 -0.007393475
-0.24501805 0.041900627 0.16164868 0.028173419 -0.13892561 -0.13046233 -0.23177291 0.2773401
0.2752934 -0.11081369 0.1235003 0.2916274 -0.30403626 -0.04735125 -0.05133468 0.020407971
0.08823827 -0.14421946 0.16272591 -0.08135948 -0.19041422 0.14657654 0.023119843 0.06807715
-0.034623403 -0.18034947 -0.24535629 0.43646356 -0.11956461 0.08921235 0.005363573 -0.26381058
-0.08597385 -0.01987841 -0.019959496 -0.39303744 -0.12193204 0.14547426 0.06443429 0.0076266723
-0.038370665 -0.061404884 -0.09159145 0.116814524 0.40872455 0.27112177 0.040537074 0.13192393
-0.09720289 -0.07325324 -0.43556944 -0.086736836 0.59422445 -0.01949167 0.19948189 0.029093158
-0.14350651 -0.09690402 0.19168964 0.14461438 0.22545223 -0.06268148 0.08235359 0.27671176
-0.223415 -0.15928958 -0.3061529 0.25412485 0.29767925 -0.17452309 -0.21321264 0.4367874
-0.1684079 -0.13578802 0.22631304 0.16945778 0.16623586 0.1573207 -0.1311701 0.16606638
-0.23411638 -0.14690371 0.26060194 0.29200637 0.036546588 0.3235783 -0.026743814 0.15293077
-0.24368635 -0.17145027 0.14090914 -0.2599721 0.06676207 0.3379927 -0.05290704 0.08511601
-0.14837286 -0.1177932 0.004841826 0.4479563 9.6295626e-05 0.23372813 -0.120204024 0.24764533
0.13103591 -0.3884337 -0.58360994 -0.054660123 0.13087621 -0.2632683 0.52390885 -0.31656083
-0.020125538 -0.46412694 -0.33514574 -0.0032869428 -0.09862256 -0.26927423 -0.14842126 -0.056825597

sequential/y_pred/BiasAdd/ReadVariableOp f4 [2]
00000000: 2216 ffbc 0416 ff3c
-0.031138483 0.031138428

sequential/y_pred/MatMul f4 [2, 400]
00000000: 3fef 5f3d 2c7a e6bd fd55 6f3d 8ae3 463c
00000010: ee68 353e ddad f53c 7975 8cbe 1f36 23be
00000020: d065 e8bd 732c 4fbd 8ca9 96be a294 8fbe
00000030: 15c5 dabd 4295 8f3e 0f89 f4bc 9d32 8f3d
00000040: c70a 493d e556 f83d cdbe e63c 6723 2a3c
00000050: a323 873d 2dca 153d c3ef 6dbd 96bb b13d
00000060: f939 ebbd 0f35 dabd ba85 2f3d 2943 26be
00000070: 655a a5bd 1f09 2c3e 71e1 ecbd 1ef5 073e
00000080: eea6 48bd f8f6 263e 06d2 ef3c a018 3cbd
00000090: 89ea e9bb 5954 e6bd a6a5 35be 2d4d d43d
000000a0: c8f0 08be 510e 00bd 8fb0 313e f827 79be
000000b0: f5aa c03d 9d94 873e 6355 873d ce36 15bd
000000c0: 5888 803c a489 243d 487b 303d 45c8 7bbd
000000d0: 0051 783d 9a8d 88bd 4ffe ee3b 1c35 4ebd
000000e0: 2f1b 15be 337e 52be 608b e63e 740d 96be
000000f0: 1567 a43d dacd 193e d5b7 cbbc 4235 2b3d
00000100: f984 33bd 1a47 1b3e f55f 633d 5fad 503c
00000110: 76ad 033e 50c4 823d 47eb 9bbd 844d 9b3d
00000120: ff6b febc dde0 12bd ed5c 1c3e 76b4 9ebe
00000130: 2709 033e d515 523d 49cb 2cbd a1d5 223c
00000140: 8260 97bd 7d69 9d3d 4329 b6bd 0477 493c
00000150: 8701 023e c9f8 5bbd 096b 1dbd 7282 633d
00000160: 13f6 56bd 0ed8 103d 1bbd a93e 0556 8f3c
00000170: d18f 383e 0d4c 4b3d 6b1c e3bd d511 e73d
00000180: 0d9b ef3a 11d2 ed3d 9c0a 6f3c d480 3dbd
00000190: 3de3 353d cd50 06be 6734 46be f9c7 b83c
000001a0: b4b6 95bd 56fb 8ebd 0322 793d 9720 24be
000001b0: 6bdd 52bc 2fc4 81bd d750 c3bd 85eb b1bd
000001c0: e5d1 4abe 9e23 e33c ad52 2dbb 5d18 593d
000001d0: 2527 e83c 2298 b1bc 633a 6bbe b4d1 b7bd
000001e0: 7619 b1bd 7f8f 5dbe 7b99 243d bb91 71be
000001f0: fce6 333d 0451 d5bc 3a8f 19bd 98ec a9bd
00000200: 0e90 aa3c a5b6 ec3d 3492 cfbd 3379 9b3d
00000210: 3524 afbd 8e9d 39bd d626 10be 8405 0dbd
00000220: 627d a3bd d206 2ebe 24da 043e 8e34 06be
00000230: 63cf e13d 557f e23e ab79 58be 5426 753c
00000240: ceec 08bd f904 943c ddae 4a3d 73be d33d
00000250: 46a9 f6bd 74a7 583d f38d 67bd fa12 b53c
00000260: 2f8b d53b 55dc e8bd 53c4 433e c2d4 22be
00000270: f915 4f3e 54bf 3fbd 70ee 43bd 126a 1e3c
00000280: 1995 edbd 9028 2b3c 4d9b c13d a123 1f3e
00000290: 9890 353d 4341 a5bd b62f 5d3d 6909 a63d
000002a0: 1b35 2dbc 705d 6cbd 8ab3 cb3d 446c 02be
000002b0: aec8 5a3e bdc4 a03d e727 71bc 6491 033e
000002c0: 0c4e d93c 6cfd 043d 0345 233e 9787 0b3e
000002d0: 6fe0 fe3c 00e9 1e3d bfe4 293d f638 7dbc
000002e0: 7fe2 01bd 047c 42be 322a 743c 6ead 2dbe
000002f0: 59b4 263e 6195 303e 3725 18be 0517 b33d
00000300: 8f68 20bb f40b 98bb 20c5 ef3d 9904 963c
00000310: 0f21 9b3d afc7 08ba 5dc5 f73b 3779 56bd
00000320: bd14 0abd 57f8 0abe cc59 113e 095f 51be
00000330: 7b7b 003e 6d0a 0f3d 39ec 80bd 5074 593e
00000340: 9129 8ebd 4bda 673d a53d d33d 8529 813e
00000350: 4bcc b83c b766 79bc caab e23c 8d13 00bd
00000360: 903f 62bd 7683 49bd f34f 5c3c 9036 29be
00000370: 6474 2f3e 6da4 f83d fd8f 743b a8fa 873e
00000380: 350e a53d df97 103e 9da1 ed3d 3a19 503d
00000390: aaa4 2c3d 7924 d3bd 166c 0d3d ad4b a1bc
000003a0: f895 f63c 96db 7f3c e8e1 ed3d 3c4e 62be
000003b0: 87a2 1f3e 23b8 7fbd 0c40 abbd c356 853e
000003c0: 844e 333e 67e0 743d 4188 d43d 4e21 803d
000003d0: 2ffd 14be 19de 9dbd e833 bc3d d672 31bd
000003e0: 8864 b7bc 7953 7dbb e22f 383e 894c 4dbe
000003f0: 7aa6 dc3d 0c89 ff3d 5e06 4a3d f106 183e
0.054671522 -0.11253771 0.058431614 0.0121392105 0.17715809 0.029990131 -0.27433375 -0.15938614
-0.11347544 -0.0505795 -0.2942623 -0.28043085 -0.10682122 0.28043562 -0.02985051 0.069920756
0.049082544 0.12125949 0.028167153 0.010384417 0.06598594 0.036569763 -0.058089983 0.08678357
-0.11485667 -0.106546514 0.04285214 -0.16236557 -0.08073882 0.16800354 -0.11566437 0.13277099
-0.04898732 0.16305149 0.029274952 -0.04592192 -0.0071385545 -0.11246557 -0.17738971 0.103662826
-0.13373101 -0.031263653 0.17352508 -0.24331653 0.094076075 0.2648057 0.06608083 -0.03642922
0.015690014 0.040170327 0.04308632 -0.06147029 0.060624123 -0.06667633 0.0072934995 -0.050343618
-0.14561151 -0.20555954 0.4502821 -0.2930714 0.08027474 0.15019932 -0.024867931 0.041798837
-0.043827984 0.15163842 0.055511434 0.012736647 0.12859139 0.063851 -0.07613235 0.07583144
-0.031057356 -0.035858978 0.15269823 -0.30997056 0.1279646 0.051290352 -0.042186055 0.009938628
-0.07391454 0.07686136 -0.08894589 0.012296442 0.12695895 -0.053704057 -0.038432155 0.055544324
-0.05248077 0.035362296 0.3315209 0.017497072 0.18023612 0.049633075 -0.11089405 0.11282698
0.0018280462 0.116123326 0.014589932 -0.04626544 0.044406164 -0.1311676 -0.19355927 0.022556292
-0.073102385 -0.06981532 0.06082345 -0.16028057 -0.012870173 -0.06336247 -0.09536903 -0.086875
-0.19806631 0.027726945 -0.0026446984 0.05300175 0.028338978 -0.021678988 -0.22971492 -0.089755446
-0.086474344 -0.2163677 0.040185433 -0.23590748 0.043921456 -0.026039608 -0.037490107 -0.0829708
0.020820644 0.11558274 -0.10135308 0.07591476 -0.08551828 -0.04531627 -0.14077315 -0.03442909
-0.07982899 -0.16994789 0.12973839 -0.13105986 0.11025884 0.44237772 -0.21140163 0.014962751
-0.03342896 0.018068777 0.04948317 0.1033906 -0.12044005 0.05289407 -0.056531858 0.022103775
0.006516836 -0.1137015 0.1911786 -0.15901473 0.20223226 -0.046813324 -0.047834814 0.009668844
-0.11600704 0.010446683 0.094534494 0.15540935 0.04432735 -0.08069088 0.05400058 0.081072636
-0.010571743 -0.057706296 0.09946354 -0.12736613 0.21365616 0.07850025 -0.014718986 0.12848431
0.026526473 0.032468244 0.15944295 0.13625942 0.031112878 0.038796425 0.041477915 -0.015455475
-0.031710144 -0.1899262 0.014902638 -0.1696069 0.16279735 0.17244484 -0.14857946 0.08744625
-0.0024476384 -0.004640097 0.117075205 0.01831274 0.07574665 -0.00052177435 0.0075613693 -0.052361693
-0.033711184 -0.13571297 0.14194411 -0.2044641 0.12547104 0.034922052 -0.06295056 0.21235776
-0.06941522 0.056604665 0.10314492 0.2522699 0.022558352 -0.015222243 0.027669806 -0.031268645
-0.0552364 -0.049197637 0.013446796 -0.1652472 0.17134243 0.12140737 0.003731727 0.26558423
0.080593504 0.14120434 0.11603091 0.050805308 0.042149223 -0.10309691 0.034526907 -0.019689405
0.030100808 0.015616318 0.11615354 -0.22100157 0.15589343 -0.062431466 -0.08361825 0.26042756
0.1751042 0.05978432 0.10377551 0.06256352 -0.14549707 -0.077083774 0.09189588 -0.043322407
-0.022386804 -0.003865449 0.17987016 -0.20048727 0.107739404 0.124773115 0.04932248 0.14846398
