app/src/main/assets/justine_classifier_quant_int8.lite (tflite, 6616 bytes, 3 tensors)

sequential/y_pred/MatMul i1 [2, 400] scale=0.0035455283 zero_point=0
0	0x0f	0.053182922
1	0xe0	-0.113456905
2	0x10	0.056728452
3	0x03	0.010636585
4	0x32	0.17727642
5	0x08	0.028364226
6	0xb3	-0.27300566
7	0xd3	-0.15954877
8	0xe0	-0.113456905
9	0xf2	-0.049637396
10	0xad	-0.29427886
11	0xb1	-0.28009674
12	0xe2	-0.106365845
13	0x4f	0.28009674
14	0xf8	-0.028364226
15	0x14	0.070910566
16	0x0e	0.049637396
17	0x22	0.120547965
18	0x08	0.028364226
19	0x03	0.010636585
20	0x13	0.067365035
21	0x0a	0.035455283
22	0xf0	-0.056728452
23	0x18	0.08509268
24	0xe0	-0.113456905
25	0xe2	-0.106365845
26	0x0c	0.04254634
27	0xd2	-0.1630943
28	0xe9	-0.08154715
29	0x2f	0.16663983
30	0xdf	-0.117002435
31	0x25	0.13118455
32	0xf2	-0.049637396
33	0x2e	0.1630943
34	0x08	0.028364226
35	0xf3	-0.04609187
36	0xfe	-0.0070910566
37	0xe0	-0.113456905
38	0xce	-0.17727642
39	0x1d	0.10282032
40	0xda	-0.13473007
41	0xf7	-0.031909756
42	0x31	0.17373088
43	0xbb	-0.24464145
44	0x1b	0.09572926
45	0x4b	0.26591462
46	0x13	0.067365035
47	0xf6	-0.035455283
48	0x04	0.014182113
49	0x0b	0.03900081
50	0x0c	0.04254634
51	0xef	-0.060273983
52	0x11	0.060273983
53	0xed	-0.067365035
54	0x02	0.0070910566
55	0xf2	-0.049637396
56	0xd7	-0.14536665
57	0xc6	-0.20564064
58	0x7f	0.4502821
59	0xad	-0.29427886
60	0x17	0.08154715
61	0x2a	0.14891219
62	0xf9	-0.024818698
63	0x0c	0.04254634
64	0xf4	-0.04254634
65	0x2b	0.15245771
66	0x10	0.056728452
67	0x04	0.014182113
68	0x24	0.12763903
69	0x12	0.06381951
70	0xeb	-0.074456096
71	0x15	0.074456096
72	0xf7	-0.031909756
73	0xf6	-0.035455283
74	0x2b	0.15245771
75	0xa9	-0.30846095
76	0x24	0.12763903
77	0x0e	0.049637396
78	0xf4	-0.04254634
79	0x03	0.010636585
80	0xeb	-0.074456096
81	0x16	0.07800162
82	0xe7	-0.08863821
83	0x03	0.010636585
84	0x24	0.12763903
85	0xf1	-0.053182922
86	0xf5	-0.03900081
87	0x10	0.056728452
88	0xf1	-0.053182922
89	0x0a	0.035455283
90	0x5e	0.33327967
91	0x05	0.017727641
92	0x33	0.18082194
93	0x0e	0.049637396
94	0xe1	-0.109911375
95	0x20	0.113456905
96	0x01	0.0035455283
97	0x21	0.117002435
98	0x04	0.014182113
99	0xf3	-0.04609187
100	0x0d	0.04609187
101	0xdb	-0.13118455
102	0xc9	-0.19500406
103	0x06	0.02127317
104	0xeb	-0.074456096
105	0xec	-0.070910566
106	0x11	0.060273983
107	0xd3	-0.15954877
108	0xfc	-0.014182113
109	0xee	-0.06381951
110	0xe5	-0.09572926
111	0xe7	-0.08863821
112	0xc8	-0.19854958
113	0x08	0.028364226
114	0xff	-0.0035455283
115	0x0f	0.053182922
116	0x08	0.028364226
117	0xfa	-0.02127317
118	0xbf	-0.23045933
119	0xe7	-0.08863821
120	0xe8	-0.08509268
121	0xc3	-0.21627723
122	0x0b	0.03900081
123	0xbd	-0.2375504
124	0x0c	0.04254634
125	0xf9	-0.024818698
126	0xf5	-0.03900081
127	0xe9	-0.08154715
128	0x06	0.02127317
129	0x21	0.117002435
130	0xe3	-0.10282032
131	0x15	0.074456096
132	0xe8	-0.08509268
133	0xf3	-0.04609187
134	0xd8	-0.14182113
135	0xf6	-0.035455283
136	0xe9	-0.08154715
137	0xd0	-0.17018536
138	0x25	0.13118455
139	0xdb	-0.13118455
140	0x1f	0.109911375
141	0x7d	0.44319102
142	0xc4	-0.21273169
143	0x04	0.014182113
144	0xf7	-0.031909756
145	0x05	0.017727641
146	0x0e	0.049637396
147	0x1d	0.10282032
148	0xde	-0.120547965
149	0x0f	0.053182922
150	0xf0	-0.056728452
151	0x06	0.02127317
152	0x02	0.0070910566
153	0xe0	-0.113456905
154	0x36	0.19145852
155	0xd3	-0.15954877
156	0x39	0.2020951
157	0xf3	-0.04609187
158	0xf3	-0.04609187
159	0x03	0.010636585
160	0xdf	-0.117002435
161	0x03	0.010636585
162	0x1b	0.09572926
163	0x2c	0.15600324
164	0x0d	0.04609187
165	0xe9	-0.08154715
166	0x0f	0.053182922
167	0x17	0.08154715
168	0xfd	-0.010636585
169	0xf0	-0.056728452
170	0x1c	0.09927479
171	0xdc	-0.12763903
172	0x3c	0.21273169
173	0x16	0.07800162
174	0xfc	-0.014182113
175	0x24	0.12763903
176	0x07	0.024818698
177	0x09	0.031909756
178	0x2d	0.15954877
179	0x26	0.13473007
180	0x09	0.031909756
181	0x0b	0.03900081
182	0x0c	0.04254634
183	0xfc	-0.014182113
184	0xf7	-0.031909756
185	0xca	-0.19145852
186	0x04	0.014182113
187	0xd0	-0.17018536
188	0x2e	0.1630943
189	0x31	0.17373088
190	0xd6	-0.14891219
191	0x19	0.08863821
192	0xff	-0.0035455283
193	0xff	-0.0035455283
194	0x21	0.117002435
195	0x05	0.017727641
196	0x15	0.074456096
197	0x00	0.0
198	0x02	0.0070910566
199	0xf1	-0.053182922
200	0xf6	-0.035455283
201	0xda	-0.13473007
202	0x28	0.14182113
203	0xc6	-0.20564064
204	0x23	0.12409349
205	0x0a	0.035455283
206	0xee	-0.06381951
207	0x3c	0.21273169
208	0xec	-0.070910566
209	0x10	0.056728452
210	0x1d	0.10282032
211	0x47	0.2517325
212	0x06	0.02127317
213	0xfc	-0.014182113
214	0x08	0.028364226
215	0xf7	-0.031909756
216	0xf0	-0.056728452
217	0xf2	-0.049637396
218	0x04	0.014182113
219	0xd1	-0.16663983
220	0x30	0.17018536
221	0x22	0.120547965
222	0x01	0.0035455283
223	0x4b	0.26591462
224	0x17	0.08154715
225	0x28	0.14182113
226	0x21	0.117002435
227	0x0e	0.049637396
228	0x0c	0.04254634
229	0xe3	-0.10282032
230	0x0a	0.035455283
231	0xfa	-0.02127317
232	0x08	0.028364226
233	0x04	0.014182113
234	0x21	0.117002435
235	0xc2	-0.21982275
236	0x2c	0.15600324
237	0xee	-0.06381951
238	0xe8	-0.08509268
239	0x49	0.25882357
240	0x31	0.17373088
241	0x11	0.060273983
242	0x1d	0.10282032
243	0x12	0.06381951
244	0xd7	-0.14536665
245	0xea	-0.07800162
246	0x1a	0.09218374
247	0xf4	-0.04254634
248	0xfa	-0.02127317
249	0xff	-0.0035455283
250	0x33	0.18082194
251	0xc7	-0.2020951
252	0x1e	0.106365845
253	0x23	0.12409349
254	0x0e	0.049637396
255	0x2a	0.14891219

sequential/conv1d_1/Conv1D i1 [16, 1, 3, 8]
0	0xdf	-33
1	0xed	-19
2	0x2f	47
3	0x5d	93
4	0xdb	-37
5	0xe8	-24
6	0xea	-22
7	0x3e	62
8	0xf3	-13
9	0xe4	-28
10	0xb2	-78
11	0x0c	12
12	0x81	-127
13	0x0c	12
14	0x58	88
15	0xcb	-53
16	0x11	17
17	0xf4	-12
18	0x3a	58
19	0x64	100
20	0xa9	-87
21	0x05	5
22	0x0d	13
23	0x18	24
24	0x09	9
25	0xf9	-7
26	0xd8	-40
27	0xcf	-49
28	0x25	37
29	0xd3	-45
30	0xe5	-27
31	0x27	39
32	0xd0	-48
33	0xfc	-4
34	0x8d	-115
35	0xce	-50
36	0x5c	92
37	0x0a	10
38	0x79	121
39	0x59	89
40	0x7f	127
41	0xfe	-2
42	0xac	-84
43	0xa6	-90
44	0xde	-34
45	0x8f	-113
46	0x1f	31
47	0xee	-18
48	0xef	-17
49	0xfb	-5
50	0xda	-38
51	0xe3	-29
52	0xef	-17
53	0xe1	-31
54	0xf4	-12
55	0x17	23
56	0x7f	127
57	0xfe	-2
58	0x2b	43
59	0x01	1
60	0xf1	-15
61	0xd7	-41
62	0xda	-38
63	0x41	65
64	0xe8	-24
65	0xfb	-5
66	0xef	-17
67	0xe9	-23
68	0xd7	-41
69	0x0e	14
70	0x21	33
71	0xfb	-5
72	0x37	55
73	0xa6	-90
74	0xed	-19
75	0xf2	-14
76	0xfe	-2
77	0xab	-85
78	0xc0	-64
79	0x2e	46
80	0x2b	43
81	0x81	-127
82	0xe6	-26
83	0x28	40
84	0xeb	-21
85	0xa3	-93
86	0xaf	-81
87	0xf7	-9
88	0x9d	-99
89	0xa9	-87
90	0xc5	-59
91	0x14	20
92	0xeb	-21
93	0x90	-112
94	0x5e	94
95	0x06	6
96	0xd8	-40
97	0x15	21
98	0x12	18
99	0x81	-127
100	0xb7	-73
101	0xb1	-79
102	0xff	-1
103	0xe5	-27
104	0xe9	-23
105	0x0b	11
106	0xd1	-47
107	0xcc	-52
108	0xa5	-91
109	0xfe	-2
110	0x0e	14
111	0xca	-54
112	0x0c	12
113	0x6a	106
114	0xdb	-37
115	0xff	-1
116	0xcd	-51
117	0x74	116
118	0xcd	-51
119	0xde	-34
120	0xb5	-75
121	0x05	5
122	0x3d	61
123	0x1d	29
124	0xe0	-32
125	0x86	-122
126	0xe5	-27
127	0x7f	127
128	0x81	-127
129	0xe9	-23
130	0xfb	-5
131	0xbb	-69
132	0x3d	61
133	0x41	65
134	0xb8	-72
135	0xfe	-2
136	0xb0	-80
137	0x0e	14
138	0x35	53
139	0x09	9
140	0xd3	-45
141	0xd5	-43
142	0xb4	-76
143	0x5a	90
144	0x50	80
145	0xe0	-32
146	0x24	36
147	0x55	85
148	0xa8	-88
149	0xf2	-14
150	0xf1	-15
151	0x06	6
152	0x1a	26
153	0xd6	-42
154	0x2f	47
155	0xe8	-24
156	0xc9	-55
157	0x2b	43
158	0x07	7
159	0x14	20
160	0xf6	-10
161	0xcc	-52
162	0xb9	-71
163	0x7f	127
164	0xdd	-35
165	0x1a	26
166	0x02	2
167	0xb3	-77
168	0xee	-18
169	0xfc	-4
170	0xfc	-4
171	0xac	-84
172	0xe6	-26
173	0x1f	31
174	0x0e	14
175	0x02	2
176	0xf8	-8
177	0xf3	-13
178	0xec	-20
179	0x19	25
180	0x57	87
181	0x3a	58
182	0x09	9
183	0x1c	28
184	0xeb	-21
185	0xf0	-16
186	0xa3	-93
187	0xed	-19
188	0x7f	127
189	0xfc	-4
190	0x2b	43
191	0x06	6
192	0xd6	-42
193	0xe4	-28
194	0x38	56
195	0x2a	42
196	0x42	66
197	0xee	-18
198	0x18	24
199	0x50	80
200	0xbf	-65
201	0xd2	-46
202	0xa7	-89
203	0x4a	74
204	0x57	87
205	0xcd	-51
206	0xc2	-62
207	0x7f	127
208	0xcf	-49
209	0xd9	-39
210	0x42	66
211	0x31	49
212	0x30	48
213	0x2e	46
214	0xda	-38
215	0x30	48
216	0xbe	-66
217	0xd6	-42
218	0x4a	74
219	0x53	83
220	0x0a	10
221	0x5c	92
222	0xf8	-8
223	0x2b	43
224	0xbb	-69
225	0xcf	-49
226	0x28	40
227	0xb6	-74
228	0x13	19
229	0x60	96
230	0xf1	-15
231	0x18	24
232	0xd6	-42
233	0xdf	-33
234	0x01	1
235	0x7f	127
236	0x00	0
237	0x42	66
238	0xde	-34
239	0x46	70
240	0x1d	29
241	0xab	-85
242	0x81	-127
243	0xf4	-12
244	0x1c	28
245	0xc7	-57
246	0x72	114
247	0xbb	-69
248	0xfc	-4
249	0x9b	-101
250	0xb7	-73
251	0xff	-1
252	0xeb	-21
253	0xc5	-59
254	0xe0	-32
255	0xf4	-12

sequential/conv1d/Conv1D i1 [8, 1, 3, 13]
0	0x22	34
1	0x1c	28
2	0x20	32
3	0xd5	-43
4	0xd7	-41
5	0x28	40
6	0xea	-22
7	0x9a	-102
8	0x0c	12
9	0x46	70
10	0x01	1
11	0xb3	-77
12	0x0c	12
13	0xb1	-79
14	0xab	-85
15	0x29	41
16	0xd6	-42
17	0xdb	-37
18	0x28	40
19	0xd0	-48
20	0x0c	12
21	0x20	32
22	0x46	70
23	0x45	69
24	0x18	24
25	0xe6	-26
26	0x0d	13
27	0x81	-127
28	0x23	35
29	0xf8	-8
30	0xbd	-67
31	0x40	64
32	0xf3	-13
33	0xe0	-32
34	0x2b	43
35	0x08	8
36	0xcf	-49
37	0x0c	12
38	0xf1	-15
39	0x8b	-117
40	0xd4	-44
41	0xb9	-71
42	0xe3	-29
43	0xd7	-41
44	0x7f	127
45	0xef	-17
46	0xff	-1
47	0x14	20
48	0x20	32
49	0x2d	45
50	0xff	-1
51	0x0c	12
52	0xa3	-93
53	0x23	35
54	0xf0	-16
55	0xa9	-87
56	0x15	21
57	0x46	70
58	0x4f	79
59	0x0e	14
60	0x0a	10
61	0x20	32
62	0x26	38
63	0x4e	78
64	0xb5	-75
65	0x9e	-98
66	0xe8	-24
67	0xbe	-66
68	0xb8	-72
69	0x0c	12
70	0x00	0
71	0xff	-1
72	0x32	50
73	0xf4	-12
74	0x3d	61
75	0xb7	-73
76	0x06	6
77	0x1b	27
78	0xf4	-12
79	0x10	16
80	0xcc	-52
81	0x1a	26
82	0xff	-1
83	0xc6	-58
84	0x0b	11
85	0x19	25
86	0xf7	-9
87	0x0d	13
88	0xd8	-40
89	0xeb	-21
90	0x2e	46
91	0x8b	-117
92	0xb7	-73
93	0x25	37
94	0x59	89
95	0x3f	63
96	0xe9	-23
97	0x3e	62
98	0x2b	43
99	0xe7	-25
100	0xee	-18
101	0x11	17
102	0x15	21
103	0x1e	30
104	0xa9	-87
105	0x8f	-113
106	0xfa	-6
107	0xa2	-94
108	0xcc	-52
109	0x81	-127
110	0xcf	-49
111	0xdb	-37
112	0xf2	-14
113	0xcc	-52
114	0x08	8
115	0xbb	-69
116	0xee	-18
117	0xd9	-39
118	0xce	-50
119	0xd5	-43
120	0xcb	-53
121	0x14	20
122	0x10	16
123	0x13	19
124	0xfc	-4
125	0x23	35
126	0xcb	-53
127	0x10	16
128	0xec	-20
129	0xf1	-15
130	0x50	80
131	0x22	34
132	0xc5	-59
133	0x61	97
134	0xf4	-12
135	0x47	71
136	0xf3	-13
137	0x0c	12
138	0x03	3
139	0x0b	11
140	0x03	3
141	0xfe	-2
142	0xfd	-3
143	0x7f	127
144	0xe6	-26
145	0x28	40
146	0xe2	-30
147	0xf6	-10
148	0x0e	14
149	0x2d	45
150	0xf2	-14
151	0x04	4
152	0x3a	58
153	0x1a	26
154	0x06	6
155	0xd4	-44
156	0x6b	107
157	0xd9	-39
158	0xe8	-24
159	0x42	66
160	0xf0	-16
161	0xd9	-39
162	0x2d	45
163	0x2a	42
164	0xef	-17
165	0x45	69
166	0x09	9
167	0x5b	91
168	0x17	23
169	0x54	84
170	0xff	-1
171	0x0c	12
172	0x81	-127
173	0xf1	-15
174	0xb5	-75
175	0xf1	-15
176	0xe2	-30
177	0xce	-50
178	0x08	8
179	0x41	65
180	0xf0	-16
181	0xf9	-7
182	0xec	-20
183	0x55	85
184	0xe9	-23
185	0xa4	-92
186	0x06	6
187	0xf9	-7
188	0x20	32
189	0x06	6
190	0x2a	42
191	0xcc	-52
192	0xed	-19
193	0x30	48
194	0x27	39
195	0xed	-19
196	0x0e	14
197	0xc9	-55
198	0x5a	90
199	0x04	4
200	0x31	49
201	0xb6	-74
202	0x18	24
203	0xee	-18
204	0xff	-1
205	0x0a	10
206	0x08	8
207	0x12	18
208	0x32	50
209	0xd2	-46
210	0xc8	-56
211	0xab	-85
212	0xc1	-63
213	0x26	38
214	0xe7	-25
215	0xf4	-12
216	0xde	-34
217	0x16	22
218	0xfc	-4
219	0xf5	-11
220	0x9c	-100
221	0xf7	-9
222	0x7f	127
223	0xe6	-26
224	0x48	72
225	0xec	-20
226	0x68	104
227	0xfb	-5
228	0x14	20
229	0x3c	60
230	0xff	-1
231	0x01	1
232	0x09	9
233	0x1d	29
234	0x27	39
235	0x2e	46
236	0x2a	42
237	0x28	40
238	0xef	-17
239	0x98	-104
240	0xb1	-79
241	0xe5	-27
242	0xeb	-21
243	0xe2	-30
244	0xfe	-2
245	0x39	57
246	0x11	17
247	0xe7	-25
248	0x23	35
249	0x86	-122
250	0xf6	-10
251	0x36	54
252	0xae	-82
253	0xee	-18
254	0xd8	-40
255	0x35	53
